Detecting/NeuralNetwork/model.tflite (tflite, 43448 bytes, 4 tensors)

sequential_4/output/MatMul i1 [1, 40] scale=0.0037507333 zero_point=0
0.0075014667 0.3825748 -0.29630792 0.26255134 -0.43508506 0.07126393 0.0 -0.47634313
-0.47634313 0.17253374 0.1237742 -0.2137918 0.030005867 -0.36382112 -0.44258654 0.0
-0.2925572 0.0 -0.43133435 0.0 -0.3713226 -0.29630792 -0.28505573 -0.168783
0.0037507333 -0.1912874 -0.1912874 0.2137918 -0.24379766 0.0 0.22129327 0.2137918
0.3600704 0.09751907 0.0075014667 0.26630208 -0.27380353 -0.3713226 -0.36757186 0.35631967
00000000: 0266 b146 8c13 0081 812e 21c7 089f 8a00
00000010: b200 8d00 9db1 b4d3 01cd cd39 bf00 3b39
00000020: 601a 0247 b79d 9e5f

sequential_4/hidden_layer1/MatMul i1 [40, 960] scale=0.00131492 zero_point=0
-0.00920444 0.0 0.00262984 -0.00131492 0.0 0.0 0.0 0.0
0.0 0.0 0.0 0.0 0.0 0.0 0.0 0.0
0.0 0.0 0.0 0.0 0.0 0.0 0.0 0.0
0.0 0.0 0.0 0.0 0.0 0.0 0.0 0.0
0.0 0.0 0.0 0.0 0.0 0.0 0.0 0.0
0.0 0.0 0.0 0.0 0.0 0.0 0.0 0.0
0.0 0.0 0.0 0.0 0.0 0.0 0.0 0.0
0.0 0.0 0.0 0.0 0.0 0.0 0.0 0.0
0.0 0.0 0.0 0.0 0.0 0.0 0.0 0.0
0.0 0.0 0.0 0.0 0.0 0.0 0.0 0.0
0.0 0.0 0.0 0.0 0.0 0.0 0.0 0.0
0.0 0.0 0.0 0.0 0.0 0.0 0.0 0.0
0.0 0.0 0.0 0.0 0.0 0.0 0.0 0.0
0.0 0.0 0.0 0.0 0.0 0.0 0.0 0.0
0.0 0.0 0.0 0.0 0.0 0.0 0.0 0.0
0.0 0.0 0.0 0.0 0.0 0.0 0.0 0.0
0.0 0.0 0.0 0.0 0.0 0.0 0.0 0.0
0.0 0.0 0.0 0.0 0.0 0.0 0.0 0.0
0.0 0.0 0.0 0.0 0.0 0.0 0.0 0.0
0.0 0.0 0.0 0.0 0.0 0.0 0.0 0.0
0.0 0.0 0.0 0.0 0.0 0.0 0.0 0.0
0.0 0.0 0.0 0.0 0.0 0.0 0.0 0.0
0.0 0.0 0.0 0.0 0.0 0.0 0.0 0.0
0.0 0.0 0.0 0.0 0.0 0.0 0.0 0.0
0.0 0.0 0.0 0.0 0.0 0.0 0.0 0.0
0.0 0.0 0.0 0.0 0.0 0.0 0.0 0.0
0.0 0.0 0.0 0.0 0.0 0.0 0.0 0.0
0.0 0.0 0.0 0.0 0.0 0.0 0.0 0.0
0.0 0.0 0.0 0.0 0.0 0.0 0.0 0.0
0.0 0.0 0.0 0.0 0.0 0.0 0.0 0.0
0.0 0.0 0.0 0.0 0.0 0.0 0.0 0.0
0.0 0.0 0.0 0.0 0.0 0.0 0.0 0.0
00000000: f900 02ff 0000 0000 0000 0000 0000 0000
00000010: 0000 0000 0000 0000 0000 0000 0000 0000
00000020: 0000 0000 0000 0000 0000 0000 0000 0000
00000030: 0000 0000 0000 0000 0000 0000 0000 0000
00000040: 0000 0000 0000 0000 0000 0000 0000 0000
00000050: 0000 0000 0000 0000 0000 0000 0000 0000
00000060: 0000 0000 0000 0000 0000 0000 0000 0000
00000070: 0000 0000 0000 0000 0000 0000 0000 0000
00000080: 0000 0000 0000 0000 0000 0000 0000 0000
00000090: 0000 0000 0000 0000 0000 0000 0000 0000
000000a0: 0000 0000 0000 0000 0000 0000 0000 0000
000000b0: 0000 0000 0000 0000 0000 0000 0000 0000
000000c0: 0000 0000 0000 0000 0000 0000 0000 0000
000000d0: 0000 0000 0000 0000 0000 0000 0000 0000
000000e0: 0000 0000 0000 0000 0000 0000 0000 0000
000000f0: 0000 0000 0000 0000 0000 0000 0000 0000

sequential_4/conv_layer2/Conv2D i1 [4, 3, 3, 4]
127 -9 -5 0 -21 -7 -3 0
-1 -9 -4 0 83 7 -2 0
0 14 -3 0 -1 4 -4 0
33 -2 -4 0 61 -2 -5 0
0 -5 -4 0 3 -9 0 0
58 -20 -5 0 -10 -3 -5 0
-1 -2 0 0 61 4 -6 0
-4 21 -4 0 0 5 0 0
127 -2 -4 0 0 2 -4 0
127 -8 -5 0 -19 -12 -5 0
-8 -13 -5 0 12 21 -7 0
0 23 -5 0 0 5 -2 0
113 -7 -5 0 0 -10 2 0
0 3 -16 0 -1 1 0 0
127 -8 -9 0 -21 -9 -3 0
-2 -1 1 0 72 7 -3 0
-1 16 -3 0 -2 3 0 0
6 2 2 0 0 -5 -10 0
00000000: 7ff7 fb00 ebf9 fd00 fff7 fc00 5307 fe00
00000010: 000e fd00 ff04 fc00 21fe fc00 3dfe fb00
00000020: 00fb fc00 03f7 0000 3aec fb00 f6fd fb00
00000030: fffe 0000 3d04 fa00 fc15 fc00 0005 0000
00000040: 7ffe fc00 0002 fc00 7ff8 fb00 edf4 fb00
00000050: f8f3 fb00 0c15 f900 0017 fb00 0005 fe00
00000060: 71f9 fb00 00f6 0200 0003 f000 ff01 0000
00000070: 7ff8 f700 ebf7 fd00 feff 0100 4807 fd00
00000080: ff10 fd00 fe03 0000 0602 0200 00fb f600

sequential_4/conv_layer1/Conv2D i1 [4, 3, 3, 1]
0 -127 50 -34 -11 61 -44 11
10 16 126 37 15 -50 -51 -4
-127 -12 70 -112 -127 -2 -52 -60
-100 -95 -50 0 0 1 -99 -29
-127 0 15 -3
00000000: 0081 32de f53d d40b 0a10 7e25 0fce cdfc
00000010: 81f4 4690 81fe ccc4 9ca1 ce00 0001 9de3
00000020: 8100 0ffd
